data/trained_models/size_classifier.pth (torch, 12823 bytes, 6 tensors)

fc.0.weight f4 [64, 5]
0	0x3bc49d18	0.0060001723
1	0x3f37c07e	0.71778095
2	0x3c44c149	0.012008973
3	0xbc14897e	-0.009065984
4	0xba641b38	-0.00087015657
5	0xbe48d6f1	-0.19613244
6	0x3e60f49c	0.21968311
7	0x3d5d30bc	0.054001555
8	0x3e94007f	0.28906628
9	0x3dabc92d	0.083879806
10	0xbc2ed42e	-0.010670705
11	0xbf260007	-0.6484379
12	0xbc518c77	-0.012789837
13	0xbc3bf97f	-0.011473059
14	0x3c1e02fa	0.009644264
15	0x39c89b21	0.00038262553
16	0x3f07889a	0.5294281
17	0xbc2021dc	-0.009773698
18	0x3c215ba2	0.009848507
19	0xba5378bc	-0.0008067002
20	0x3d18e2a9	0.037325535
21	0x3f20c322	0.6279775
22	0xbc90da88	-0.017682329
23	0x3d5052e8	0.050860316
24	0xbcdc16a3	-0.026866263
25	0x3d0597ec	0.032615587
26	0xbf40e5a6	-0.75350416
27	0x3e149ae3	0.1451221
28	0xbe435747	-0.19076262
29	0x3de20430	0.11035955
30	0xbe86c4e6	-0.26322097
31	0x3f19db19	0.6009994
32	0xbdc7959e	-0.09745334
33	0xbe0a661c	-0.13515514
34	0x3eb8d9db	0.3610371
35	0x3c6d79ea	0.014494399
36	0x3f2cc5cf	0.6748933
37	0x3c40f74c	0.01177771
38	0x3a1bb00c	0.0005939014
39	0xbc552250	-0.013008669
40	0xbe09a595	-0.13442071
41	0xbe09b2c6	-0.13447103
42	0xbe71aa55	-0.23600133
43	0x3cfaa527	0.030596329
44	0x3dcfb7f5	0.10142509
45	0x3be630a8	0.0070248432
46	0xbfb32f8b	-1.3998884
47	0xbd250045	-0.04028346
48	0x3b250d43	0.0025184907
49	0xbcd79d7e	-0.026320215
50	0xbe2f4f24	-0.17120034
51	0xbeb73191	-0.35780004
52	0x3d9271b7	0.07150596
53	0xbe7bba65	-0.24582823
54	0x3ca62d1e	0.020285185
55	0x3e3f27fe	0.186676
56	0xbf34bbf4	-0.70599294
57	0x3e836bbe	0.25668138
58	0x3e99b3d7	0.3002002
59	0xbec13e8a	-0.37743026
60	0xbb0de852	-0.0021653366
61	0xc01ba953	-2.4322097
62	0x3c698ebe	0.014255224
63	0xbc8bcde6	-0.017065953
64	0xbacd3053	-0.001565466
65	0x3d4525cb	0.048131745
66	0x3e9d82fd	0.30764
67	0x3edc4018	0.4301765
68	0xbebc86b2	-0.36821514
69	0xb990a512	-0.00027588807
70	0x3bdf8468	0.006821204
71	0xbf3f91da	-0.74831927
72	0x3b629c41	0.0034577998
73	0xbaba2412	-0.0014201424
74	0x3b1e23a2	0.0024130126
75	0x3ea105cc	0.31449735
76	0xbf4d7953	-0.8026325
77	0xbddf0ac9	-0.10890729
78	0xbe3958a6	-0.18100223
79	0xbe68c046	-0.22729596
80	0x3e1c1f43	0.152463
81	0xbe357ac0	-0.17722607
82	0x3dd11826	0.10209684
83	0x3e9dbf26	0.30809897
84	0xbee8855a	-0.4541424
85	0xbea87439	-0.3290117
86	0x3e426047	0.1898204
87	0xbe930911	-0.28717855
88	0x3eb79e3b	0.35862908
89	0x3d75b9fa	0.059991814
90	0xbd8df5c9	-0.069316454
91	0xbdc59812	-0.09648146
92	0xbe28031f	-0.1640744
93	0xbd7b8c6f	-0.061413225
94	0xbda7954d	-0.08182774
95	0x3c684641	0.014176906
96	0xbf19690a	-0.599259
97	0x3c2b4f4d	0.0104559185
98	0xbbf2dd35	-0.007411624
99	0x399b3cf4	0.00029609317
100	0xbcdc041a	-0.026857425
101	0x3ee71963	0.45136556
102	0x3d0d05e9	0.034429464
103	0x3c2a0d8c	0.010379206
104	0xbbc41434	-0.0059838537
105	0x3d5a30c6	0.05326917
106	0x3f13b2ac	0.57694507
107	0xbbe11310	-0.0068687275
108	0x3d7073ff	0.058704372
109	0xbccb766d	-0.024836743
110	0x3cfa410a	0.030548591
111	0x3fae8aee	1.3636148
112	0xbd1f8e2b	-0.03895394
113	0x3d04d1c4	0.03242661
114	0xbd0807cd	-0.033210564
115	0x3c9d2fb1	0.01918778
116	0xc0195a6b	-2.3961437
117	0x3c15e97d	0.009149906
118	0x3af61c04	0.001877666
119	0x3bf67390	0.0075211003
120	0xbc5e622d	-0.013573212
121	0x3f43b668	0.76450205
122	0x3b62e93f	0.0034623889
123	0x3b95a90f	0.0045672725
124	0xbbabf3fc	-0.005247591
125	0x3ce9734e	0.028497364
126	0x3f462bb6	0.7741045
127	0x3a175535	0.00057728897
128	0xbcef25cf	-0.029192833
129	0xbcd506b8	-0.02600418
130	0xbd611ddf	-0.054960128
131	0xbf2f6a79	-0.6852184
132	0x3ddde782	0.10835172
133	0xbe236f04	-0.15960318
134	0x3d4d8076	0.050171338
135	0xbc9c0558	-0.019045517
136	0xbf2e660e	-0.68124473
137	0xbdcfd054	-0.10147157
138	0x3dbe7c10	0.09301007
139	0xbd3b75ec	-0.045766756
140	0xbcd61cb6	-0.026136737
141	0x3f01c42f	0.5068998
142	0xbbd76e1d	-0.006574406
143	0x3ca289dd	0.019841129
144	0x3b9809d7	0.004639845
145	0x3dabe4e5	0.083932675
146	0xbf20f7d9	-0.62878186
147	0xbe16fa72	-0.14743975
148	0x3e9dcb4a	0.3081916
149	0xbce1e486	-0.027574789
150	0xbb06cc0b	-0.0020568396
151	0x3fe1604b	1.7607511
152	0xbc6bd4ca	-0.014393995
153	0x3c7bb6fd	0.015363452
154	0xbc34b469	-0.011029341
155	0xbc5cc817	-0.0134754395
156	0xbf0e245b	-0.55524224
157	0x3cdf7767	0.027278615
158	0xbd324b60	-0.043528914
159	0xbbcf25cc	-0.0063216444
160	0xbb41b0d2	-0.0029554856
161	0x3f8ab513	1.083651
162	0xbcf4754f	-0.029841093
163	0xbcaa88d5	-0.0208172
164	0xbb8e4432	-0.0043416256
165	0x3dda1c6f	0.106499545
166	0xbf1293eb	-0.57256955
167	0x3c7e4cf0	0.015521273
168	0xbe19ea0c	-0.15030688
169	0xbd8923c7	-0.06696277
170	0x3b8352fd	0.0040076957
171	0x3f9b78f9	1.2146293
172	0xbbdc372f	-0.0067204456
173	0x3c938ccf	0.018011479
174	0x39f234ea	0.0004619726
175	0xbe76d363	-0.24104075
176	0x3f2e573a	0.6810185
177	0x3d722a64	0.059122458
178	0xbde13803	-0.109970115
179	0x3da30a46	0.07960944
180	0x3daf76a2	0.08567549
181	0xbeb61134	-0.3556
182	0x3e8f2c99	0.27963713
183	0x3e1da7c6	0.15396032
184	0xbed67e1f	-0.41893098
185	0xbdf77af5	-0.12083999
186	0xbe967c89	-0.29391888
187	0xbddd46a1	-0.10804487
188	0xbe38f8a0	-0.18063593
189	0x3ea0964f	0.31364676
190	0xba3f2cfd	-0.00072927756
191	0xbfdda039	-1.7314521
192	0x3c8ec462	0.017427627
193	0x3b4f135f	0.003159724
194	0xbcd38cb6	-0.025823932
195	0x3d6cd91f	0.05782425
196	0xbe5d8564	-0.21632916
197	0xbe19e1c8	-0.15027535
198	0x3e133283	0.14374737
199	0xbe2a8702	-0.16653064
200	0x3d4ca3e0	0.04996097
201	0x3f466e4c	0.7751205
202	0x3dfd4af2	0.1236781
203	0x3d47c151	0.048768345
204	0xbd9875b0	-0.07444322
205	0x3d0426b1	0.03226346
206	0xbe8d9541	-0.27652934
207	0x3d461fdb	0.048370223
208	0x3e441eb8	0.19152343
209	0xbeee9d55	-0.4660441
210	0xbd8f3a14	-0.069934994
211	0x3ea3bcd6	0.31980008
212	0x3e70e868	0.23526156
213	0xbdd57563	-0.1042278
214	0x3e2fd32f	0.17170404
215	0x3c8c5f58	0.017135307
216	0x3eed8171	0.46387818
217	0x3bf58cea	0.007493605
218	0xbc8a99aa	-0.016918976
219	0xbcf7a0cd	-0.030228043
220	0x3d631dd3	0.055448364
221	0xbf56d057	-0.8391165
222	0x3e83af7b	0.25719818
223	0x3d1ebc79	0.03875396
224	0xbe65655f	-0.22401951
225	0x3df99636	0.121868536
226	0x3f24d2bd	0.6438406
227	0xbd5b9c7a	-0.053616025
228	0xbd8e4f42	-0.06948711
229	0xbcffa2a3	-0.03120548
230	0xbe033381	-0.12812616
231	0x3f5a1172	0.8518287
232	0xbe8fe42e	-0.28103775
233	0xbd73f842	-0.05956293
234	0x3d1d4b2e	0.038401775
235	0xbe1ab671	-0.15108658
236	0x3f5841f3	0.8447563
237	0xbe87a681	-0.2649422
238	0xbdb46d2b	-0.08809885
239	0x3dd227b5	0.1026148
240	0x3c0cd82a	0.008596459
241	0xbf31344a	-0.6922041
242	0x3be0e886	0.0068636565
243	0xbc026ea5	-0.00796095
244	0x3b87cc40	0.0041442215
245	0x3bf02608	0.0073287524
246	0xbfd30903	-1.6487125
247	0x3c752233	0.014961767
248	0xbc336ee3	-0.01095173
249	0x3b084c1a	0.0020797313
250	0xbc0f747c	-0.008755799
251	0xbff2fbf6	-1.8983142
252	0x3cd90855	0.02649323
253	0xbbd87068	-0.0066051967
254	0xbbbe5b3a	-0.005809215
255	0xbe974a4c	-0.29548872

fc.0.bias f4 [64]
0	0xbf4aaffa	-0.7917477
1	0x3eb4468a	0.35210067
2	0x3f4d8b71	0.80290896
3	0x3f16fae1	0.5897656
4	0xbf3685fb	-0.7129819
5	0x3f3d1c3a	0.73871195
6	0x3e5a073c	0.21291822
7	0xbf403d17	-0.75093216
8	0x3f3567a8	0.7086129
9	0x3d8456bc	0.06461856
10	0xbee8f3fb	-0.45498642
11	0x3eb38fde	0.350707
12	0x3e008ad7	0.12552963
13	0x3e0e17f2	0.13876322
14	0xbf47b8f7	-0.7801661
15	0xbf030b21	-0.51188856
16	0x3ee47bb3	0.44625625
17	0x3e22e963	0.15909342
18	0x3f72dff7	0.94872993
19	0xbf2211dc	-0.633085
20	0x3f140833	0.5782501
21	0xbf34e85d	-0.7066706
22	0xbcdcda49	-0.026959555
23	0x3e0137f9	0.12619008
24	0x3f5b7490	0.85724735
25	0x3f5ef304	0.8708956
26	0x3f620179	0.882835
27	0x3f657bdc	0.8964212
28	0x3f1584c9	0.5840574
29	0x3f195feb	0.59911984
30	0xbd177e87	-0.0369859
31	0xbf172cbb	-0.5905263
32	0xbbb3e222	-0.0054896036
33	0xbf2ade3a	-0.6674534
34	0x3c1a5d8b	0.009421716
35	0xbdeb77ee	-0.11497484
36	0x3f46645b	0.7749688
37	0x3f5ea708	0.8697362
38	0x3ddb5a63	0.10710599
39	0x3f4cf441	0.800602
40	0xbd37765e	-0.044790618
41	0x3ec5dff7	0.38647434
42	0xbf43d54d	-0.76497346
43	0x3f0c0836	0.5470003
44	0xbea00d54	-0.3126017
45	0x3f2bebaf	0.671565
46	0xbed11e00	-0.408432
47	0xbebaa23a	-0.36451894
48	0xbf38053a	-0.71882975
49	0x3da8c05d	0.082398154
50	0x3dbc86d6	0.092054054
51	0xbec37694	-0.38176405
52	0xbcfa9835	-0.030590156
53	0xbef8efe1	-0.48620513
54	0x3bd3e124	0.006466048
55	0xbe4f9745	-0.20272548
56	0xbf2f1282	-0.68387616
57	0x3dc4bdfc	0.09606549
58	0x3f41cda8	0.7570443
59	0x3e334e8e	0.17510435
60	0xbf4b67b1	-0.79455096
61	0x3d883418	0.06650561
62	0xbf3b7f21	-0.7324086
63	0x3d9390ba	0.07205339

fc.3.weight f4 [32, 64]
0	0xbd13b971	-0.036065523
1	0x3da4e6c3	0.08051827
2	0x3e9197f2	0.28436238
3	0xbe86cd64	-0.26328576
4	0xbe05132e	-0.12995598
5	0x3e0dd110	0.13849282
6	0xbd49d27d	-0.049273003
7	0xbdffd527	-0.124918275
8	0x3d867139	0.06564564
9	0x3e862dfd	0.2620696
10	0x3e041ebc	0.12902349
11	0x3e654ec2	0.22393325
12	0x3eb09af5	0.34493223
13	0x3da730b6	0.08163588
14	0x3fb881f9	1.4414665
15	0x3e60bd07	0.21947108
16	0x3e1f2225	0.15540369
17	0x3e1a64a3	0.15077452
18	0x3dac9627	0.08427077
19	0x3fa4d6a5	1.2878004
20	0xbdd2f41b	-0.10300466
21	0xbd0b6bc7	-0.03403833
22	0xbf14b229	-0.5808435
23	0x3e4fdbcf	0.20298694
24	0xbe82eb6e	-0.25570244
25	0xbdb99d8f	-0.09063255
26	0x3e809878	0.25116324
27	0x3e3c1ee7	0.18371163
28	0xbe39d2ae	-0.18146774
29	0x3e89e557	0.26932785
30	0xbfe59126	-1.7934921
31	0x3efa66d0	0.48906565
32	0xbfaf9a74	-1.371901
33	0x3ef910e8	0.4864571
34	0xbf31b9f3	-0.6942436
35	0xbe561a71	-0.20908524
36	0x3e2582dc	0.161632
37	0x3e4da478	0.20082271
38	0x3e71b466	0.23603973
39	0x3e092681	0.13393594
40	0xbeaad985	-0.3336908
41	0x3e6c57c3	0.23080353
42	0x3da80724	0.08204487
43	0xbe364c14	-0.17802459
44	0x3e87049e	0.2637071
45	0x3d6286ac	0.055304214
46	0xbe181898	-0.14853132
47	0xbde1b43e	-0.110207066
48	0x3fbb13a0	1.4615364
49	0x3e2ad013	0.16680937
50	0x3e9685aa	0.29398853
51	0xbbd3d914	-0.0064650867
52	0xbfac36d0	-1.3454227
53	0x3e06a5f9	0.13149251
54	0xbf5d1f39	-0.86375767
55	0x3d4e1e61	0.05032194
56	0x3f0c3809	0.54773
57	0x3e7048d0	0.23465276
58	0x3e6edf29	0.23327316
59	0x3d22250f	0.039586123
60	0xbdca25a3	-0.0987046
61	0x3d71ab48	0.059001237
62	0xbd94b098	-0.07260245
63	0x3e834370	0.25637388
64	0xbd9a4695	-0.07532994
65	0xbf5c724b	-0.861119
66	0x3e0dc62e	0.13845131
67	0xbfcca4aa	-1.5987751
68	0xbd937753	-0.07200494
69	0x3d942c94	0.07235065
70	0xbf333056	-0.6999563
71	0xbb40bb17	-0.002940839
72	0x3dd9668d	0.10615263
73	0x3da09559	0.07840986
74	0x3e14443b	0.14479153
75	0x3da94457	0.08264988
76	0x3d4202d4	0.04736598
77	0xbf06ae7c	-0.5260999
78	0x3fcede6f	1.6161631
79	0x3e159199	0.14606322
80	0x3d1880e7	0.037232306
81	0xbbe6f299	-0.007047963
82	0x3e04d1e5	0.12970693
83	0x3fcdd6e1	1.6081201
84	0xbeda7632	-0.426683
85	0x3db333f2	0.08750142
86	0xbd3e0192	-0.046388216
87	0x3db3c494	0.08777729
88	0xbfe2b107	-1.7710274
89	0xbfc55ba7	-1.5418595
90	0x3c9af9ae	0.018917885
91	0x3db3c935	0.087786116
92	0xbf8a8a18	-1.0823393
93	0x3e1007a7	0.14065419
94	0xbd6103cb	-0.054935258
95	0x3effab54	0.499354
96	0xbd1bbeaf	-0.038023647
97	0x3efcfc77	0.49411365
98	0xbe2d17f6	-0.16903672
99	0xbed30419	-0.41214064
100	0x3da892d8	0.08231133
101	0x3c9d51b7	0.019204004
102	0x3d8f1561	0.069864996
103	0x3d7af941	0.061272863
104	0x3c12b6cf	0.008954718
105	0x3d25b3cd	0.040454675
106	0xbe2af11a	-0.16693535
107	0xbf7c124d	-0.98465425
108	0xbd8fb058	-0.07016057
109	0xbefbc552	-0.4917398
110	0x3e063224	0.13105065
111	0xbd90eee7	-0.07076817
112	0x3fe77eb7	1.8085545
113	0x3da9294d	0.082598306
114	0x3d5b7dc8	0.05358675
115	0xbe01293f	-0.1261339
116	0xbd58a0aa	-0.052887596
117	0x3e2cc1d5	0.16870816
118	0xbda0138c	-0.07816228
119	0x3e63dd5a	0.22252408
120	0x3ef7dc95	0.48410478
121	0x3d0714e0	0.032978892
122	0x3e280b26	0.16410503
123	0xbe2c0bd7	-0.16801392
124	0xbe38326a	-0.17987981
125	0x3e888af4	0.26668513
126	0xbd9b7fb2	-0.07592715
127	0x3b962bd8	0.0045828633
128	0x3f20b061	0.6276913
129	0x3c88da62	0.016705696
130	0xbde6157b	-0.11234566
131	0x3df841ab	0.121219
132	0x3f1449ad	0.5792492
133	0x3dbb61b5	0.091494955
134	0x3dfde688	0.12397486
135	0x3f3e3b50	0.74309254
136	0x3da4dfe3	0.080505155
137	0xbf3bbbd8	-0.733335
138	0xbe76d09b	-0.24103014
139	0xbd8ee1f0	-0.06976688
140	0xbf8a1e1f	-1.0790442
141	0x3da65c4d	0.08123074
142	0x3d4e605e	0.05038487
143	0xbd4d99ef	-0.05019563
144	0x3e018e7e	0.12652013
145	0x3e066347	0.13123809
146	0x3d90d3ad	0.07071624
147	0xbd2a4816	-0.041572653
148	0x3d5cd39d	0.053912748
149	0x3f00c040	0.5029335
150	0x3d8f4113	0.06994834
151	0xbf88b61b	-1.0680574
152	0x3d729a74	0.05922933
153	0x3dd9780f	0.106186025
154	0x3bace626	0.0052764593
155	0xbda57b46	-0.08080153
156	0x3e23bfd3	0.15991144
157	0xbd523b83	-0.051326286
158	0x3e7d90c3	0.24762253
159	0xbd9f9545	-0.07792143
160	0x3e95f1f9	0.29286173
161	0xbe21935f	-0.15778874
162	0x3de9cc08	0.11415869
163	0x3e079373	0.13239841
164	0x3e87c257	0.26515457
165	0x3dbbb7eb	0.09165939
166	0xbfaf30fa	-1.3686821
167	0x3e051eb9	0.13000001
168	0xbc2c9fa2	-0.010536106
169	0x3b837c47	0.0040126177
170	0xbcfae95e	-0.030628856
171	0x3e57a668	0.21059573
172	0xbf1dc481	-0.61627966
173	0x3deea56a	0.11652644
174	0x3e5eed0a	0.2177011
175	0x3e929608	0.2863009
176	0x3d42ce0d	0.047559787
177	0xbf9992b6	-1.1997898
178	0xbfa29c9a	-1.2704041
179	0x3d8e2768	0.0694111
180	0x3e4bd1ca	0.19904247
181	0xbe3aa909	-0.18228544
182	0x3e1826bd	0.14858527
183	0x3e72daf2	0.23716334
184	0xbe926b8d	-0.2859768
185	0xbf967a71	-1.1756116
186	0xbe4fd343	-0.20295434
187	0x3d3126f5	0.043250043
188	0x3ecea8c1	0.40363124
189	0x3e488ccc	0.1958496
190	0x3f754334	0.9580567
191	0xbfbd3ab7	-1.4783543
192	0xbdb5d98d	-0.08879385
193	0xbf2df6e3	-0.67954844
194	0x3d53afb1	0.051681224
195	0xbfdede8d	-1.7411667
196	0x3cdbcd08	0.026831165
197	0x3dd6885a	0.10475226
198	0xbf26f4bc	-0.65217185
199	0xbcabf907	-0.020992769
200	0x3e1e9617	0.15486942
201	0xbe247e4b	-0.16063802
202	0x3e4e7b17	0.20164143
203	0x3c2f884f	0.010713651
204	0xbd4e3d40	-0.05035138
205	0xbec58bcd	-0.38583222
206	0x3fc68b53	1.5511268
207	0xbcdcb52c	-0.026941858
208	0x3e635e8e	0.22204039
209	0x3dcee09b	0.10101434
210	0x3d9cfd62	0.076655164
211	0x3fca88fa	1.5823052
212	0xbecc5b75	-0.39913526
213	0xbe23e39f	-0.160048
214	0xbda15b50	-0.078787446
215	0x3d7eb18a	0.062181033
216	0xc00044a6	-2.00419
217	0xbfd19946	-1.63749
218	0x3e007f55	0.12548573
219	0x3d7aff21	0.061278466
220	0xbf9c2337	-1.2198247
221	0x3e862d82	0.26206595
222	0x3d6c16e2	0.05763901
223	0x3f34fb6d	0.70696145
224	0xbcfd601e	-0.030929621
225	0x3f00a4fd	0.5025175
226	0xbdb557c6	-0.08854632
227	0xbdec6ab4	-0.115437895
228	0x3e15b914	0.14621383
229	0x3d5c5d66	0.05380001
230	0xbd9ff1da	-0.078098014
231	0x3e3bb6bb	0.18331425
232	0x3de44cb5	0.11147443
233	0x3e580e78	0.2109927
234	0xbdb400ac	-0.08789191
235	0xbf54f5f9	-0.83187824
236	0x3d8ee9ab	0.069781624
237	0xbed42e3a	-0.41441518
238	0x3d80d7fa	0.06291194
239	0xbdb87520	-0.09006715
240	0x3fec668e	1.8468797
241	0x3de37187	0.11105638
242	0x3d38f126	0.045151852
243	0xbe6ed439	-0.23323144
244	0x3e40a56e	0.18813106
245	0x3c99adb2	0.018759582
246	0xbd632ee2	-0.055464633
247	0x3e577ef4	0.21044523
248	0x3eef1849	0.46698216
249	0xbb58f06b	-0.0033102285
250	0x3e3a4101	0.1818886
251	0xbe316f7c	-0.17327684
252	0x3d79db7c	0.061000332
253	0x3e0f9577	0.1402186
254	0xbdf0d393	-0.117591046
255	0xbb147a7b	-0.0022656012

fc.3.bias f4 [32]
0	0xbdb5c26a	-0.08874972
1	0xbe874b6a	-0.26424724
2	0x3df82949	0.121172495
3	0xbe4257e8	-0.18978846
4	0xbd9f4ae3	-0.077779554
5	0xbdd028e4	-0.10164049
6	0xbee7c80c	-0.4526981
7	0xbc85f9a0	-0.016354382
8	0x3ee3bc9c	0.44479835
9	0xbe48f006	-0.19622812
10	0x3e6b8bab	0.23002498
11	0x3e862133	0.26197204
12	0x3ef68559	0.4814861
13	0x3ee7fd49	0.4531043
14	0x3f398e33	0.72482604
15	0x3f4fa42f	0.811099
16	0x3cb5d7d4	0.022197641
17	0x3d53d1a5	0.051713604
18	0x3e84275b	0.25811276
19	0x3f2f8819	0.68567044
20	0x3ebf4210	0.3735509
21	0xbe7e7a11	-0.24851252
22	0x3eda1011	0.42590383
23	0xbf66b6bc	-0.9012258
24	0x3e784dc6	0.24248418
25	0x3d941975	0.07231418
26	0xbda89e5c	-0.0823333
27	0x3f2de276	0.67923677
28	0x3f79e8cd	0.9762085
29	0x3ef3c589	0.47611645
30	0x3e4d6803	0.20059209
31	0x3d894bd2	0.06703915

fc.5.weight f4 [5, 32]
0	0xbd5981f3	-0.053102445
1	0xbdb54e43	-0.08852818
2	0x3e66824a	0.22510639
3	0x3cc8746c	0.024469577
4	0x3e783c93	0.24241857
5	0x3ebbaea8	0.3665669
6	0x3e1e7484	0.15474135
7	0xbe1ac558	-0.15114343
8	0xbfac591a	-1.3464692
9	0xbe716f13	-0.23577528
10	0xbe85efb2	-0.26159436
11	0xbe911232	-0.28334194
12	0xbea6b253	-0.32557926
13	0x3e4cc705	0.19997795
14	0xbe989a68	-0.29805303
15	0x3ec1f0bd	0.3787898
16	0xbe9d9ea9	-0.3078511
17	0xbf02ef60	-0.5114651
18	0x3dad4e17	0.0846216
19	0xbee7df75	-0.45287672
20	0xbe3b70b5	-0.18304713
21	0x3e98f8fd	0.29877463
22	0xbe99d5c8	-0.30045915
23	0xbe8e6bb1	-0.27816537
24	0xbf47c85c	-0.780401
25	0x3d4663fc	0.048435196
26	0xbdf2e25b	-0.1185958
27	0x3e810982	0.25202566
28	0xbea1e3dd	-0.31619158
29	0xbd969d7b	-0.07354256
30	0x3e6eee06	0.23332986
31	0xbe4778e6	-0.19479713
32	0xbf84a987	-1.0364236
33	0xbe4b1f7f	-0.19836234
34	0xbc1c6e2a	-0.0095477495
35	0xbded8a04	-0.1159859
36	0xbcf3e8a5	-0.02977402
37	0xbf04b796	-0.5184263
38	0xbf2757ef	-0.6536855
39	0xbe174d5b	-0.14775603
40	0x3eec82b3	0.46193466
41	0xbe9c2ccb	-0.30502924
42	0x3f1cbd23	0.612261
43	0xbf00cb69	-0.5031038
44	0x3e7dff5b	0.24804442
45	0x3e55986b	0.20858924
46	0x3edc6907	0.4304888
47	0x3c215dbe	0.00984901
48	0xbf52942d	-0.8225735
49	0xbf8e266e	-1.1105478
50	0x3ea14f9c	0.3150605
51	0x3dd5d8b5	0.10441724
52	0x3f121b42	0.5707284
53	0xbf072515	-0.5279096
54	0x3d93b1ef	0.072116725
55	0xbf07f3ff	-0.53106683
56	0x3ee7776f	0.45208308
57	0x3e93ea9a	0.28889924
58	0xbd7ea7ff	-0.062171932
59	0x3e7176f0	0.23580527
60	0x3e063d58	0.13109338
61	0x3e56f2d5	0.2099107
62	0x3e39d5f1	0.18148018
63	0xbf939652	-1.1530249
64	0xbb666057	-0.0035152638
65	0xbf0644e3	-0.5244886
66	0xbf6b4efe	-0.9191741
67	0xbf599ad1	-0.85001856
68	0xbf99130b	-1.1958936
69	0xbf48f3b7	-0.7849688
70	0xbf07d30c	-0.53056407
71	0xbdc46736	-0.095899984
72	0x3d9d3471	0.07676018
73	0xbf0ab671	-0.54184633
74	0xbef61b4a	-0.48067695
75	0x3f27b372	0.65508187
76	0x3eb3564d	0.3502678
77	0x3dc564c6	0.09638362
78	0x3e865888	0.2623942
79	0xbb99cda8	-0.0046937056
80	0x3e8151e7	0.252578
81	0x3e76560a	0.24056259
82	0xbf819f00	-1.0126648
83	0x3c87b947	0.01656784
84	0xbf4be6af	-0.7964887
85	0xbed4a92d	-0.4153532
86	0x3f00bda5	0.50289375
87	0xbbe327c3	-0.00693223
88	0x3ee9d4c1	0.4567013
89	0xbe072d67	-0.13200913
90	0xbedecc05	-0.4351503
91	0x3e9184a8	0.2842152
92	0x3dce793c	0.10081717
93	0x3e9f9dde	0.3117513
94	0x3e0a4aa9	0.13505043
95	0x3de205bb	0.11036249
96	0xbde4afca	-0.111663416
97	0x3dc98b15	0.09840981
98	0x3e17fe79	0.14843167
99	0x3dbd224c	0.09235057
100	0x3e7d7a28	0.2475363
101	0x3e766db2	0.24065283
102	0x3ecb6529	0.39725617
103	0xbc1c8245	-0.009552543
104	0xbf3e0b82	-0.7423631
105	0xbd94c86d	-0.07264791
106	0x3d162d7b	0.036664467
107	0xbea98cb8	-0.33115172
108	0xbf37b5e1	-0.717619
109	0x3dfabf65	0.12243537
110	0xbf8966fc	-1.0734553
111	0xbe8c3c77	-0.2738988
112	0xbb6a29e9	-0.0035730547
113	0xbec7b6ee	-0.39006752
114	0xbd9bd77d	-0.076094605
115	0xbfa765d0	-1.3077946
116	0xbecb2504	-0.39676678
117	0x3ee23939	0.44184282
118	0xbed95f28	-0.4245541
119	0x3f1dbf4d	0.61620027
120	0xbe3598a7	-0.17734013
121	0x3e3936f9	0.18087377
122	0x3df223bf	0.11823224
123	0xbe9db653	-0.30803165
124	0xbfbcf6de	-1.4762838
125	0xbed563bb	-0.4167765
126	0x3e964671	0.29350618
127	0xbe15393a	-0.14572611
128	0x3ec20d18	0.37900615
129	0x3f1fed48	0.6247144
130	0xbd812913	-0.063066624
131	0x3f4155c2	0.7552148
132	0xbd2c02f5	-0.041995008
133	0xbe0327ca	-0.12808147
134	0xbe4fd29f	-0.2029519
135	0x3bf0d45b	0.0073495335
136	0x3e3a837e	0.18214223
137	0x3f23d9c9	0.6400419
138	0xbe8e35fe	-0.27775568
139	0xbe920437	-0.2851884
140	0xbe46e0e4	-0.19421726
141	0xbf5436f3	-0.82896346
142	0xbdcd0c44	-0.10012105
143	0xbf048f4b	-0.5178115
144	0x3e97cde9	0.29649284
145	0x3e72eff0	0.23724341
146	0xbeb8cd98	-0.36094356
147	0x3e225e0c	0.15856189
148	0xbe7de8e9	-0.2479588
149	0xbe5abc61	-0.21360923
150	0xbf047b50	-0.5175066
151	0xbde79964	-0.11308554
152	0xbec396ae	-0.38200897
153	0xbf3d4e3d	-0.7394751
154	0x3e69b03c	0.22821134
155	0xbeff0c3c	-0.49814022
156	0x3e6d86e0	0.23195982
157	0xbf19ba4e	-0.60049903
158	0xbf91a045	-1.1377035
159	0x3e6edce4	0.2332645

fc.5.bias f4 [5]
0	0x3e15046f	0.14552473
1	0x3c92c465	0.017915914
2	0x3e9623f7	0.29324314
3	0xbf8c981f	-1.0983924
4	0xbe54dbb8	-0.20786941
